…
# =============================================================================
model_reg_ss = reg_ss.export_model()
# =============================================================================
# model_reg_ss.summary()
# Model: "model"
# _________________________________________________________________
#  Layer (type)                Output Shape              Param #   
# =================================================================
#  input_1 (InputLayer)        [(None, 100)]             0         
#                                                                  
#  multi_category_encoding (Mu  (None, 100)              0         
#  ltiCategoryEncoding)                                            
#                                                                  
#  normalization (Normalizatio  (None, 100)              201       
#  n)                                                              
#                                                                  
#  dense (Dense)               (None, 32)                3232      
#                                                                  
#  re_lu (ReLU)                (None, 32)                0         
#                                                                  
#  dense_1 (Dense)             (None, 32)                1056      
#                                                                  
#  re_lu_1 (ReLU)              (None, 32)                0         
#                                                                  
#  dropout (Dropout)           (None, 32)                0         
#                                                                  
#  regression_head_1 (Dense)   (None, 1)                 33        
# =============================================================================
# Total params: 4,522
# Trainable params: 4,321
# Non-trainable params: 201
# =============================================================================
# model_reg_ss.get_config() - convert to json, see bellow
# =============================================================================
# {'name': 'model',
…
